models/mnist_model.pt (torch, 440304 bytes, 6 tensors)

network.1.weight f4 [128, 784]
00000000: 1b61 f43d 46fb e53d b023 023e dc34 003e
00000010: dc64 c83d f449 a23d d2ff 0a3e 8cf6 ce3d
00000020: 3ec4 be3d c2db c33d 106a cb3d 62f2 b53d
00000030: 1e3b ef3d 5544 ff3d e038 d23d a0b5 aa3d
00000040: 7571 f93d 809d e83d 9009 0d3e 06b9 0a3e
00000050: a6db 123e e610 0d3e 8c85 bd3d 90cb ac3d
00000060: 1ead 013e 6695 e03d 9fec f83d b467 fc3d
00000070: b46b bd3d 28d1 d83d a8fa 963d 4451 d73d
00000080: 4c4f df3d e862 0b3e cca9 043e 7696 143e
00000090: f210 013e 1ee5 b53d 2cc9 d23d 86c5 ec3d
000000a0: a30c f73d 26fa 303e 7a99 e93d 5017 013e
000000b0: 0d07 343e ac19 173e 4d37 dd3d d622 9f3d
000000c0: 1e2f 033e 200b d03d 087c 013e 2c62 bb3d
000000d0: 1a5d 0a3e 6a0b b83d 76e3 b23d d230 c23d
000000e0: aeff bf3d cd28 f33d c82e 083e e6e9 023e
000000f0: 0af0 093e 482c 013e b134 fa3d 124a f83d
00000100: 56b1 ae3d 96e9 0e3e 30ec 003e c045 fc3d
00000110: 5a9f 0b3e 8cc8 d33c e466 213d 2c89 a83d
00000120: 14e6 2e3d dff3 9e3d 0e91 bc3d 941b d93d
00000130: 9af5 c83d c804 ef3d 462c ae3d 06be 073e
00000140: e59e f33d 78e2 ab3d 121a 023e 9424 0e3e
00000150: 80c9 b43d b6ed c83d f89b d03d 9a6b 2d3e
00000160: 8c0c e83d 629b c63d b92e eb3d eac1 b73d
00000170: bc86 a13d 93f4 193d 4a24 c13d fef3 00bd
00000180: 6402 7bbb e4c7 4c3e e10e e63d 75d3 5a3d
00000190: 89fc a2bd 074c 15bc c6df 3bbe d31a 53be
000001a0: 7469 5cbd 5731 123d 59d3 eb3d e671 e83d
000001b0: 48e1 d13d 0402 063e c2db d43d a040 d43d
000001c0: a0d2 cb3d f02b 9d3d ae49 063e ec1a e03d
000001d0: 2648 d33d be1f e43d 9d7b a93d 820e e53d
000001e0: da3a c83c b7c2 6fbe 9347 4dbe 926c 1abe
000001f0: f1fe 963c a5a2 0a3e d10b e03d 6e0e 0f3e
00000200: 90dd 6dbc 3535 4fbe 8578 0dbe d9bd 63be
00000210: a579 eabd 2316 f2bc b75e cf3d dd51 22bc
00000220: c202 7abc bcdd 9f3d c282 ab3d 8eed cc3d
00000230: bc5f 053e 8a95 063e 8616 b63d ca84 f03d
00000240: 6554 233d f2d0 82bc 604f 6cbc 5bc7 fcbc
00000250: 8d36 2dbe 1f6a 9fbe 6c77 e5bd 122b 6bbe
00000260: 57a6 053e 3133 a13e 4021 653e f618 e73e
00000270: 7096 833e f888 bf3c 7a32 adbd e1cb e4bd
00000280: 7839 5ebd 63c1 33be ade5 c3bd 4a64 14be
00000290: 7f49 69bd daec 073e e69d c13d 4cc7 a83d
000002a0: ce15 ad3d 3c86 bf3d 5eb1 e43d 448d c43d
000002b0: e001 1fba fc19 3cbe 235e 80be 654f 72be
000002c0: 4063 9abe ea3a 87be ddab e3bd 4a56 04bd
000002d0: 1a3d 503d 66e7 823e d9b0 a93d 5c6b 853c
000002e0: f262 693e f225 133e 659c 1c3d 7c2c a83c
000002f0: 651f b13d a3a8 8cbd 6ce9 51be b6be c5bd
00000300: 327d febc fb29 793d ffc3 053e 62ab ce3d
00000310: edd9 fd3d 8ab0 d73d 1c75 043e b7a1 653d
00000320: 8830 6cbc dbac 6abe 5d13 7ebe 4266 aabe
00000330: bb23 d6be 4982 30bd 9926 833e 4ba6 633c
00000340: 0a6a db3d bc3a 733e ec8f 7abd 15a7 82bd
00000350: 8f27 e63d 65d5 443e 6060 253e cedd a53d
00000360: 9f21 95bd 7a69 ab3c 7715 b0be 12b3 64bd
00000370: ce55 ba3d c061 cd3d bfe5 913d 6d6e 013e
00000380: d078 013e 9a2a 063e 6c5a f13d 50fd f53d
00000390: 8843 143d c43c 3dbe 0b13 54be ed48 7cbe
000003a0: f0a3 55be 3044 a63d edd2 ae3d 49ae 00bd
000003b0: 4aae 553e d083 9f3e f15b 833e 347c 673d
000003c0: fb06 4f3e 946a fc3d ed67 533e 151f 863c
000003d0: c5ed 68bc 1405 0c3c 9566 87bd 2ff2 70be
000003e0: f0ad aabc 7464 c03d 1c9f 963d 5fdc f43d
000003f0: fdda fa3d 04a1 e63d b059 7f3d fb69 a33d
0.11932584 0.11229567 0.12708926 0.12520164 0.097848624 0.07924262 0.1357415 0.10105619
0.09314774 0.095634 0.09932339 0.088841215 0.116811976 0.12464205 0.10264754 0.083354235
0.12179843 0.11358166 0.13773179 0.13547143 0.14341602 0.13775977 0.09253988 0.08437264
0.12663695 0.109659955 0.12154507 0.12324467 0.09249058 0.105867684 0.07372028 0.10513547
0.109037966 0.13611948 0.12955397 0.14510521 0.1260412 0.08881591 0.10292277 0.11561112
0.12062957 0.17282924 0.114062265 0.1260655 0.17580815 0.14755887 0.108015634 0.07770316
0.12810943 0.10158372 0.1264497 0.09149584 0.13512078 0.08986552 0.08734791 0.09481968
0.09374939 0.118730165 0.13299096 0.12784538 0.13470474 0.12614548 0.12217081 0.12123503
0.08529918 0.13956293 0.12590098 0.12317991 0.13635007 0.025852464 0.039404765 0.082292885
0.04269989 0.077613585 0.092073545 0.10600963 0.0981247 0.11670834 0.08504538 0.13256082
0.11895541 0.08392805 0.12705258 0.13881141 0.088274956 0.09810965 0.10185999 0.16935578
0.11330518 0.09697606 0.11483521 0.08972533 0.07887027 0.03758676 0.0943075 -0.03148269
-0.0038300985 0.19998127 0.11233307 0.053424317 -0.079583235 -0.009112365 -0.18347082 -0.20615701
-0.053811505 0.035691585 0.11514921 0.113498494 0.10248047 0.13086706 0.10393478 0.10363889
0.09952283 0.07674396 0.13114044 0.10942635 0.103164956 0.11138867 0.082755305 0.11184408
0.024442125 -0.23414122 -0.20046835 -0.15080479 0.018432112 0.13538606 0.10939754 0.13970348
-0.014518157 -0.2023514 -0.13815506 -0.2224039 -0.11448983 -0.029551571 0.10125487 -0.009907213
-0.015259447 0.07805964 0.083745494 0.100062475 0.13024801 0.13142982 0.08891015 0.117440775
0.039875407 -0.015968774 -0.014423221 -0.030856779 -0.1691534 -0.3113565 -0.112044185 -0.22965649
0.13051735 0.31484368 0.22375965 0.4513623 0.25700712 0.023380741 -0.08456893 -0.11171699
-0.054254025 -0.1755424 -0.095652916 -0.14491382 -0.056954857 0.13273945 0.09453945 0.08241138
0.084514245 0.09351775 0.111666426 0.09597257 -0.0006065648 -0.18369287 -0.2507182 -0.23663099
-0.30153847 -0.26412135 -0.11116765 -0.032308854 0.05083952 0.25567168 0.08285684 0.016286545
0.22791651 0.14369944 0.038235087 0.020529024 0.08648566 -0.068681024 -0.204992 -0.09655516
-0.031065557 0.06083105 0.13063048 0.100912824 0.12395082 0.10531719 0.12935299 0.056062426
-0.014415868 -0.22917502 -0.24812074 -0.33281142 -0.41824135 -0.043093 0.25615385 0.013894628
0.10713585 0.23752874 -0.06117241 -0.063795246 0.11238014 0.19222029 0.16150045 0.080989465
-0.07281803 0.020924319 -0.34391376 -0.055834837 0.09098397 0.1002841 0.07123899 0.1263978
0.12643743 0.13102189 0.11784825 0.12011206 0.036197215 -0.18480211 -0.2071039 -0.24637194
-0.20863318 0.081184745 0.08536325 -0.03141621 0.20867267 0.31155252 0.25656083 0.056514934
0.20217507 0.12325016 0.20645113 0.016372243 -0.014216845 0.008546133 -0.06611363 -0.23529886
-0.020834893 0.0939416 0.073545665 0.11956095 0.122488 0.1126118 0.062341392 0.079791985

network.1.bias f4 [128]
00000000: 7f0e eabd 299d 47bd 6f41 1fbd 44c3 ab3c
00000010: 71b9 24bd d301 2ebd 3667 a1bc 9345 b7bd
00000020: 8593 4e3c 3059 07bd 7006 56bb 240f 00bd
00000030: 2e60 62bd d1a3 5ebd f755 d0ba 1975 9fbd
00000040: 759c 4cbd 83bd 03bd 8de8 a0bd 0b69 09bd
00000050: bbfb bfbb 47e3 22bd 5ff3 563c 2a92 a8bd
00000060: 8ffb 1ebd 0eb9 57bd 08ec c0bc 3f1f 9fbc
00000070: 349e 9abb ddd6 a1bc d920 58bd 0a33 87bc
00000080: 87db 00bd 6adb ae3a 8368 cabd 7f5c 93bd
00000090: 62b5 c6bc d18f 79bd df74 e6bd e447 2dbc
000000a0: 294e 323c 5041 54bc a922 19bd 4650 533d
000000b0: f662 ebbd 6f8b 64bd 6e69 4abc a223 d2bd
000000c0: 08a3 05bd 7792 0cbd 8270 b9bd 6416 10bc
000000d0: 6de6 9dbd c599 b83b 6193 56bd f08a 13bd
000000e0: 0612 e5bc a618 bdbd b226 4cbd 03a9 8abd
000000f0: 06a2 05bd 1b5c 9dbd ebc2 1fbd 0e3e 2dbd
00000100: 2eef 53bd 4fff 3b3c 250c acbd 5e6d eabc
00000110: b229 51bd 935d a6bc eab7 0a3d 80bf 9238
00000120: 14e7 9fbb e677 6ebc bf6b a5bd ce57 69bc
00000130: ff66 1d3d f75c 96bc 17fe 40bd e1b4 933b
00000140: e17a 853c a497 91bd d1c4 2cbd 988e 273c
00000150: 581f c6bd c82c 01bd 69b1 f4ba f07c 8abd
00000160: 9ed4 553c 4329 54bd b6a5 54bd 05a4 59bd
00000170: f949 fcbd cec8 b5bd 754d 25bd 8718 03bd
00000180: 2981 b3bc bb01 e3bb 324b 2cbd f4ce 2dbd
00000190: 4584 84bd 91ad 89bd ff61 70bd 6227 46bd
000001a0: cbc6 2abd f9dc c5bc b91c ae3d 9f8c 1b3b
000001b0: d9e1 8dbd eb3d 0a3c ddb1 99bd 47a5 99bd
000001c0: 688a 68bb e553 b7bd 1e8a 24bc 57f2 ca3c
000001d0: d96b cfbd 3b19 8ebc 19d9 a93b d7b7 75bc
000001e0: f2ea 84bd d116 e93b 5cad 5e3d e589 d53c
000001f0: ee7b 71bd 788b 16bd 9cc1 18bb 005d 35bd
-0.11428546 -0.048733864 -0.03888076 0.020967133 -0.040215913 -0.04248221 -0.019702535 -0.08948817
0.012608414 -0.03304404 -0.0032657646 -0.03126444 -0.055267505 -0.054355446 -0.001589476 -0.077860065
-0.049953897 -0.032163154 -0.078568555 -0.033547442 -0.005858866 -0.03976753 0.013119548 -0.082310036
-0.038814124 -0.052666716 -0.023550048 -0.019424079 -0.0047185663 -0.019755775 -0.0527657 -0.01650383
-0.031459358 0.0013340537 -0.09883215 -0.071953766 -0.024256412 -0.06092817 -0.1125276 -0.010576222
0.010882893 -0.012955025 -0.03738657 0.051590227 -0.11493485 -0.055797037 -0.012354238 -0.10260703
-0.03262618 -0.034319367 -0.09054662 -0.008794401 -0.07709966 0.005633565 -0.052386645 -0.036021173
-0.027962696 -0.09233217 -0.04984159 -0.06770518 -0.03262522 -0.07683583 -0.039004248 -0.042295508
-0.05174177 0.0114744445 -0.08400754 -0.028616603 -0.051065154 -0.020308292 0.0338668 6.997492e-05
-0.0048798416 -0.014554953 -0.080771916 -0.014242126 0.038428303 -0.018354876 -0.04711732 0.0045076464
0.016293945 -0.07109001 -0.042179886 0.010226868 -0.09673947 -0.031536847 -0.0018668595 -0.06762111
0.01305118 -0.051797163 -0.051915847 -0.053134937 -0.12318797 -0.08876191 -0.040357072 -0.032005813
-0.021912174 -0.0069276965 -0.0420639 -0.042433694 -0.06470541 -0.06722558 -0.058687206 -0.048377402
-0.04169349 -0.02415322 0.08501572 0.002373494 -0.06927843 0.008437614 -0.07504628 -0.07502227
-0.0035482887 -0.089515485 -0.010042695 0.02477376 -0.10127992 -0.017346015 0.0051833508 -0.014997444
-0.06490125 0.0071133156 0.054364547 0.02606673 -0.05895608 -0.0367541 -0.002330876 -0.044278145

network.3.weight f4 [64, 128]
00000000: 071c e73d f092 583e 3abb 4f3c a04d 9f3c
00000010: b76b 9abe 2f32 cbbd 94c9 d53d dabe d8bd
00000020: 91d4 d5be 91f1 ca3d e3db 39bd 9c1f b7bd
00000030: b091 493e 52a1 393e 3c21 1ebb 9000 25be
00000040: d2cd e53d 9124 bf3e 6e44 cb3d 906a 803d
00000050: 2a77 dcbe b623 0fbe 22f7 7cbc 211e da3d
00000060: c156 373e f2d8 26bc 0bf7 8cbd 99d1 583e
00000070: 2850 1cbe e33c f8bd 4175 0ebd 9b1b 333c
00000080: 0161 b43e 1599 6dbd a6fb 04bd f1ca cebd
00000090: 1029 e3bd 1342 763d ece6 d0bd 2286 a93c
000000a0: 95dd 24bd 75c7 8dbe 9a65 323e d6fa a7bc
000000b0: 4c50 49be 3b47 10be 771c fe3d 2a30 5fbd
000000c0: 5d15 eabd 964a 15bd 062c 823e d9d3 433e
000000d0: ab55 c93e 90f8 ac3d e906 4a3d 1ad4 503d
000000e0: d439 49bd 38fc 123e eb98 fcbd a945 bf3e
000000f0: d597 26be 4a42 6e3d 2303 16be 7e81 67bd
00000100: 878c 72be 0818 863e ce92 38be 74d4 6cbe
00000110: d569 6f3d bd48 353d c819 f4bd e18d bc3e
00000120: 8897 753e 4100 abbd 7b58 cbbe c7c7 95be
00000130: 143c f9bd 5fa5 843c 5691 13be cdfc 26be
00000140: 950e 3cbe 6145 e5bd f36a e93d 96ab 8fbe
00000150: d3cf 973a 517f 52bc b030 88bd 688b 9f3d
00000160: 8ff4 20bd 382c 7e3e a7fb 2dbd 199a 703d
00000170: 45a0 293e b043 613e 3f8a 5d3e 6d8b 8fbe
00000180: 6184 dfbd 1005 8cbd c08b 6b3a 6d56 10bc
00000190: b4e7 7bbc 9d9c cbbc 147d 91bd d795 883c
000001a0: 0f97 e1bc f459 18bd a209 04be 0b68 2c3d
000001b0: 4609 103e d41d 3bbc adf8 54be e326 de3d
000001c0: 921d 92be bfa2 f4be 3495 153d ac65 16bd
000001d0: 11e8 e1bd fd67 a43d 2686 463d 32e8 bfbd
000001e0: 10db 2bbe b35d 793d 23f9 e4bd eadb e8bc
000001f0: bc93 d6bd 572d 853d e3e6 49bc 5e6d d9be
00000200: b763 1d3d d329 59be 8c03 0f3e c3a7 29be
00000210: d233 cbbd 1c06 a5be ffa4 75be 92b5 573e
00000220: 66f2 12be acc0 5d3c 8d67 73bd 5b74 1a3e
00000230: f7e0 87bd bb9b c53d e06d 953d 2ceb 55bc
00000240: 5c36 75bc ce1c 7f3d 4038 64be 8a5d bc3d
00000250: f56d aa3e 48c7 39be 8d2d ac3c 90f4 fa3d
00000260: c50c babc f709 5a3b b147 babe 6ecc 833d
00000270: 60d4 213e 445a 883e 3683 abbe 3bbb 4abe
00000280: d661 50be 9499 4d3d 6179 843d a91f 55be
00000290: d1c4 13bd e51a 8fbd afe9 183e 0bf9 383e
000002a0: 41cd 0e3e 952a 97bd b2e1 d03d f537 b0be
000002b0: cbec afbe 2aa1 3fbe 198c 4ebe 6be9 593e
000002c0: cfe5 ae3c 0997 01be 42c7 8b3d cc15 0a3e
000002d0: 78bc 913d 2a2d 66bd 8f71 c93e eb06 003e
000002e0: c9c9 d5be c1d0 df3c 43ab c4bd 4a20 8b3e
000002f0: 5fe5 e8bc bcbf edbd d7ae 8abd 4518 82bc
00000300: 8af5 de3d e882 60be 5290 3a3e 22d0 623d
00000310: 02b8 773e 0461 bb3e 4629 a3be a45b af3e
00000320: 7588 4fbd 4e9f 973d 82a8 7cbc 49e4 9a3e
00000330: e8da 2dbe 52be b63c 2991 a5bd eaf3 9bbd
00000340: 40ca cd3e 2d8f c9bd 1500 a53d 123d 9e3d
00000350: 953b d43c 5eed d4be ceec 16bb 75ad 583e
00000360: 4b74 8ebd d485 a13c 27b3 703c 196a a03c
00000370: 0bbd 763e b8ad 97be dd8f 8fbc f5cf 8ebd
00000380: 7a03 3f3e 3dff a73d 1c0a 0b3d 094e 04bf
00000390: 5e97 d53d 516e cb3d b820 ac3e e386 033e
000003a0: cbfe cb3b deb5 17bd e5e5 933d 710c 543d
000003b0: 38bf 2fbd 81c9 48be 62aa fabd 5c96 23be
000003c0: c9fa 5c3e f8eb 863c c329 c53d dd70 9cbd
000003d0: 2e8a 0fbd 658b ae3d c237 e4bd c552 73bd
000003e0: e06f e83e ce57 d4bd 4670 01be cd6b 073e
000003f0: 2e32 c4bc d924 88bd 37e3 be3c 9447 4a3c
0.11284643 0.21149802 0.012678916 0.019446194 -0.30160305 -0.09921681 0.104388386 -0.10583277
-0.41763738 0.099093564 -0.045375716 -0.08941576 0.19684482 0.18127945 -0.0024128696 -0.16113496
0.11220898 0.37332585 0.09925161 0.06270325 -0.43059665 -0.13978466 -0.01543978 0.10650278
0.17904188 -0.01018356 -0.06883057 0.21173705 -0.15264952 -0.12120988 -0.03477979 0.010931875
0.35230258 -0.05800732 -0.032466553 -0.10097302 -0.110918164 0.060121607 -0.10200295 0.020693842
-0.04025038 -0.27691236 0.1742157 -0.02050535 -0.19659537 -0.14089672 0.12407773 -0.054489292
-0.11429856 -0.036448084 0.25424212 0.19123782 0.39323172 0.08445847 0.049322996 0.050983526
-0.049127415 0.14354026 -0.12333854 0.37357834 -0.16268857 0.058168687 -0.14649634 -0.056519978
-0.2368642 0.2619021 -0.18024752 -0.2312792 0.05845054 0.04425882 -0.1191898 0.36826995
0.23983586 -0.08349658 -0.39715943 -0.2925398 -0.12169662 0.016192136 -0.1441091 -0.16307373
-0.18364938 -0.111948736 0.11397352 -0.28060597 0.0011582322 -0.012847737 -0.066499114 0.077902615
-0.03929573 0.24821556 -0.042476323 0.05874071 0.16565044 0.21998477 0.21634768 -0.2803606
-0.10913921 -0.06836903 0.0008985363 -0.008809668 -0.015375067 -0.024854952 -0.07103935 0.016673012
-0.02753785 -0.03719516 -0.128943 0.04209141 0.14066038 -0.011420686 -0.20797987 0.10847261
-0.28538185 -0.47780415 0.036519244 -0.036718056 -0.11030591 0.08027647 0.048467778 -0.093704596
-0.16782784 0.060880374 -0.111803316 -0.028425176 -0.10477397 0.065027885 -0.012323114 -0.42466253
0.038425174 -0.21207361 0.13966197 -0.16567902 -0.09921993 -0.32231224 -0.23988722 0.21065357
-0.1435028 0.013534706 -0.059424926 0.15083449 -0.066347055 0.09648844 0.072963476 -0.013056558
-0.014966574 0.06228333 -0.22287083 0.09197529 0.33287016 -0.18142426 0.021017814 0.12253678
-0.022711167 0.00332701 -0.3638282 0.06435476 0.15803671 0.26631367 -0.33498544 -0.19797985
-0.20349821 0.05019529 0.06468464 -0.20812859 -0.03607637 -0.069875516 0.14932893 0.18063752
0.13945486 -0.07381169 0.10199298 -0.34417692 -0.34360346 -0.18713823 -0.2017063 0.21280448
0.021349816 -0.12655272 0.06825115 0.13484877 0.07116026 -0.056195416 0.3934445 0.12502639
-0.41755512 0.027321221 -0.09602978 0.27173072 -0.028429685 -0.11608836 -0.06771629 -0.015880713
0.108866766 -0.21924937 0.18219116 0.055374272 0.24191287 0.36597455 -0.31867427 0.34249604
-0.050667245 0.07403432 -0.015421035 0.30252293 -0.16978037 0.022307549 -0.08084328 -0.07614882
0.40193367 -0.09841762 0.08056656 0.07726492 0.025907317 -0.41587347 -0.002302933 0.21159919
-0.06955775 0.019717135 0.014691151 0.019581841 0.24095552 -0.29624724 -0.017524654 -0.069732584
0.1865367 0.0820298 0.033945188 -0.5168157 0.104292616 0.099331506 0.33618712 0.12844424
0.006225442 -0.037038676 0.07221583 0.051769678 -0.04290697 -0.19608118 -0.12239529 -0.15975326
0.21580042 0.01646994 0.09627106 -0.076387145 -0.035043888 0.08522681 -0.111434475 -0.059405107
0.45397854 -0.1036831 -0.12640485 0.13224716 -0.023949709 -0.06647653 0.023301704 0.012346167

network.3.bias f4 [64]
00000000: cb44 aa3e 8be2 9cbd 741f bdbe 328a 3dbe
00000010: 817b 71be 94f4 0ebe 469d 363d 3512 323e
00000020: a31c 5e3d ac79 6ebe 599a 8d3e 33ff 9e3e
00000030: 18c0 25be 8b83 81be db47 973e c06a b03e
00000040: e785 4f3e 6126 88be 2518 ac3d 4b91 de3c
00000050: 672b b6be 21e6 313e 820b 653e fe8f edbd
00000060: 614b 11bd bd76 b4be 4aa1 d93d 404d 2f3e
00000070: 9c8c 14bd a38a 343d 8746 243e c606 a6be
00000080: b859 5cbe e285 92be 9209 7abe a998 7ebe
00000090: 6676 953e b2c4 f63d 9e16 8fbd c01f 40bd
000000a0: f6b8 a6be 75ef b23d 0b44 ad3d 8615 023f
000000b0: 3103 4b3e 5338 87be 935f 2c3d c5f5 d1bd
000000c0: eddc 5b3e fba4 b4be acb3 52be 976e 5c3d
000000d0: d4e0 86bd fc23 5e3e 9be5 5d3e ad4d 833e
000000e0: 1d28 2f3d 3e68 36bd cfd2 5fbe 8fff c03e
000000f0: b5bc 24be da52 943e 073d 403d 249d a5bd
0.3325561 -0.07660397 -0.3693806 -0.18509749 -0.23582269 -0.13960487 0.04458358 0.17389758
0.05422653 -0.23288602 0.2765682 0.31054077 -0.16186559 -0.25295672 0.2954701 0.34456444
0.20265923 -0.2659178 0.08403043 0.02716889 -0.35579988 0.17372943 0.22367671 -0.1159973
-0.035472278 -0.3524684 0.106264666 0.17119312 -0.036266908 0.044077527 0.16042529 -0.32427043
-0.215186 -0.2861777 -0.24417713 -0.24862923 0.29191893 0.120492354 -0.06986736 -0.04690528
-0.3256299 0.08737079 0.08460244 0.5081409 0.19825436 -0.2641016 0.042083334 -0.10251955
0.21470995 -0.3528212 -0.20576352 0.053816404 -0.06585851 0.21693414 0.21669619 0.256452
0.042762864 -0.044533007 -0.21857761 0.37694976 -0.16087611 0.2896946 0.0469332 -0.08086613

network.5.weight f4 [10, 64]
00000000: 811c 14be 1f48 163d fbb0 d33d 615f 323e
00000010: b472 23bf 62f9 b7be 9544 4cbe f5e4 953c
00000020: df17 4b3e 4dbd 20be 9d32 9e3d 4b9a ab3d
00000030: 8994 ec3c ddc7 b3bd 481d 87bd 21ed 17be
00000040: 0902 b73d e2a4 aabe a02a 26be 23a6 82bc
00000050: f184 783e 889c b53c 0a28 debd 51c4 613e
00000060: bd3c 883e 6219 9cbe dd1a b3be 5799 99be
00000070: b0ab 333e 32ff 553e d37d dd3d 882a 813e
00000080: 6f05 f6bd 4ae1 20bf a86c b5bd 551b 77be
00000090: 39ce 843e 49d5 b6be 5656 e73c 257b 383e
000000a0: 8964 42be 302e 123e f7f9 253e 9192 16be
000000b0: 59ee f1be c907 30be 73a8 573e ee84 48be
000000c0: 6e48 b63d b1c1 803e fa32 83bd 5fb4 0cbe
000000d0: c8f4 2037 f9bf f3bd c3b7 6dbe e6d5 393d
000000e0: 9bb1 10be d349 20be 722c 603c 655a 08be
000000f0: f88e 8fbe 7afb 043e 886e 553e e7f9 3e3e
00000100: 91e3 a8bc 5130 173e e7b7 a1bd 8d7f ffbe
00000110: d648 893d d54a 9a3d 3f79 9d3e add3 4fbe
00000120: 5913 20bf c85d 6ebc 7d90 e83d 738a 45be
00000130: c8b5 efbe 2b0a 6abe b2e0 c3be d415 cdbe
00000140: 8d64 1fbd d975 043e c172 bebd c2b3 c1bd
00000150: ede1 163e 033e 063d 5c5f 43be 216e a63e
00000160: c2f8 bd3c 7003 a4bb ca5f b0bd a5d4 e63c
00000170: 7423 08bf f51a b13e 06c6 fdbd e2c7 963a
00000180: ed57 453e e72c bb3d 4a55 47be 19e5 9e3e
00000190: 69f4 463e fd9a 93bd 6764 aabe e981 d7bd
000001a0: 32be 0bbf 6d0d acbe 45c8 16bf c20e b4be
000001b0: c3aa dc3b 4476 613e 12f6 363d 0b78 233d
000001c0: c9ac 14bd f3f0 a93e 01d5 f13e d167 5a3e
000001d0: f1eb 09bf b351 033e 3412 b1be 0ecb 7dbe
000001e0: 3780 ccbe d7fd c2bd c8e4 7abe fc07 fc3b
000001f0: 8ddc b73d 9fca 00bf 34f4 3fbe a2de f5bd
00000200: e453 9f3d dbc3 063d 93f5 c03d 09db 5d3e
00000210: 8724 5e3e 519a 9c3d 4c25 11be a74a ba3c
00000220: 7d4d 5dbd 627b 3e3e 8051 e43d 657b c1be
00000230: f3a5 0a3e d825 833d f70f 2d3d d113 19be
00000240: d7f3 df3d 5858 95be 9ca7 e6be 862f 63bd
00000250: 85c0 eb3d fdaf 103e 77b3 9a3d 419e 01bf
00000260: aa62 98bd cc96 333e ec9a 30be b5db 9fbd
00000270: f005 313e 37b4 58be b1e1 f2bd d612 743e
00000280: 08d6 57be 862b a2be 4fd3 173e 3d69 21be
00000290: 8b2a 23be c6b3 10be 6d5b 073e 8d70 20bd
000002a0: dde6 283d 31e8 d03d b178 75be ff8d 99bd
000002b0: 570c 8e3d a5e7 653e 14bf ecbd cfa5 b1be
000002c0: 47a9 403d fe1a d1be 92f9 d6be fb7e 203d
000002d0: 62f3 83bd 444e cd3d f37f 0c3d 455f b5bd
000002e0: 5788 8ebe c393 313e f1d9 9bbe 7731 a3be
000002f0: b2f8 71be cb92 2c3e 2516 953b bcee 68be
00000300: 643f 883d f8f7 89bc 4353 a4bc 363d 79bd
00000310: ee97 81be 394f da3d 66c6 e3be 2822 d6bd
00000320: da81 64bd 6e95 02be 8a35 e8bd 20ae 78be
00000330: cf9f 10be de04 273e b39b b83d ed57 e73d
00000340: 12d6 0a3d a39a cdbd 5f40 1f3e 70f8 67bd
00000350: a9a6 adbe 3b8a 2f3e 835b 413e f75a 62be
00000360: 0914 77be 3d91 163e d96a ed3b 4ff7 cebe
00000370: 9c92 02be fcb6 15be bbf3 633e e4cc 15be
00000380: ad92 843d 44c4 803e 9ee5 23be 37ea 3bbf
00000390: 7041 f1be 13a7 eebd e7eb 453e a108 d33d
000003a0: 7705 e2bd eb70 3dbc 1a63 7abc 639f d83d
000003b0: a863 0dbe a728 993a c44c d43d 1d11 633e
000003c0: a4b3 48bd 378b 8cbd 9136 6cbe e18d 723e
000003d0: 9efb 2cbd 3ebb 543d 759e 90be 07bf 4d3d
000003e0: ac5d d6be 32f4 afbd da9f 233e cd8b 07be
000003f0: 0538 8c3c ad02 bfbd 02f4 0b3e b6d4 8dbe
-0.14463998 0.036689874 0.10336491 0.17419197 -0.638469 -0.3593245 -0.19948037 0.018297652
0.19833325 -0.15697213 0.077244975 0.083790384 0.02887942 -0.08778355 -0.06597382 -0.14836551
0.08935935 -0.3332892 -0.16227198 -0.01594836 0.24269463 0.022169366 -0.108474806 0.22047545
0.2660884 -0.30488116 -0.34981433 -0.29999802 0.17545962 0.2089813 0.10815015 0.2522776
-0.12012755 -0.62843764 -0.08858615 -0.2413152 0.25938585 -0.357096 0.02823941 0.18015726
-0.18983664 0.14275432 0.16208635 -0.14704348 -0.47252157 -0.1719047 0.21060352 -0.19581959
0.089005336 0.25147775 -0.064062074 -0.13740681 9.593736e-06 -0.1190185 -0.23214631 0.045370005
-0.14130251 -0.15653162 0.013682472 -0.13315733 -0.28038764 0.12986556 0.20842946 0.18650018
-0.020616325 0.14764525 -0.07896405 -0.49902 0.067033455 0.07533804 0.30756566 -0.20295592
-0.6252952 -0.014548726 0.11355684 -0.19291095 -0.46818376 -0.22855441 -0.38257366 -0.40055716
-0.038914252 0.1293558 -0.09299231 -0.09458114 0.14734621 0.032773983 -0.19079345 0.32505897
0.023189906 -0.0050052926 -0.0861202 0.028177569 -0.531791 0.3459088 -0.123912856 0.0011503662
0.19271822 0.09139424 -0.19466129 0.31034163 0.19429173 -0.07207296 -0.33279726 -0.10522825
-0.5458709 -0.33603993 -0.5889934 -0.3516751 0.0067342236 0.22017771 0.044668265 0.039909404
-0.036297593 0.33191642 0.47232822 0.21328665 -0.53875643 0.12824135 -0.345842 -0.2478449
-0.3994157 -0.09521072 -0.24501336 0.0076913815 0.089776136 -0.50309175 -0.187455 -0.120053545
0.07779673 0.032901626 0.094218396 0.21665587 0.21693622 0.07646621 -0.14174384 0.022740675
-0.054028977 0.18601754 0.111483574 -0.37789455 0.13539867 0.064037025 0.042251553 -0.14948966
0.10935181 -0.29168963 -0.4504975 -0.055465244 0.115113296 0.14129634 0.075537615 -0.506321
-0.07440694 0.17537993 -0.17246598 -0.07805578 0.17287421 -0.21162497 -0.118594535 0.2383531
-0.2107774 -0.3167383 0.14826702 -0.15762801 -0.15934198 -0.14131078 0.1321847 -0.039169837
0.041235793 0.10200537 -0.23971821 -0.07497787 0.069359474 0.22451647 -0.11559883 -0.34696814
0.047036435 -0.40840906 -0.41987282 0.039183598 -0.06442906 0.100246936 0.03430171 -0.08856062
-0.27838394 0.17341523 -0.30439714 -0.31873676 -0.23630026 0.16852872 0.004549759 -0.2274732
0.06652716 -0.016841874 -0.020059234 -0.06084939 -0.25311226 0.10659642 -0.44487303 -0.104557335
-0.0557879 -0.12752315 -0.11338337 -0.24285173 -0.14123462 0.1631045 0.09014072 0.112960674
0.03389556 -0.1003926 0.155519 -0.056633413 -0.33916214 0.17142574 0.18882565 -0.22105013
-0.24128737 0.14703842 0.0072454032 -0.40423056 -0.1275124 -0.14620584 0.22260945 -0.14628941
0.06473289 0.2514974 -0.16005561 -0.7340426 -0.47120237 -0.11652961 0.19328271 0.1030438
-0.110361986 -0.011562566 -0.015282417 0.105772756 -0.13807547 0.0011685089 0.103662044 0.22174497
-0.048999444 -0.068624906 -0.2306769 0.23686935 -0.04223215 0.05193638 -0.28245893 0.050231006
-0.4186834 -0.085914984 0.15978947 -0.13236924 0.017116556 -0.09326682 0.136673 -0.27701348

network.5.bias f4 [10]
00000000: c47b eebd dbef bcbe f636 02be be99 3cbc
00000010: 669c c13b bd99 48be 8666 b73c 16ee 93be
00000020: b84a 083f 851a cd3d
-0.116447 -0.36901745 -0.12716278 -0.011511264 0.0059085367 -0.19589897 0.022387754 -0.28892583
0.5323901 0.10014824
